chatbot-deployment-main/data.pth (torch, 19927 bytes, 6 tensors)

l1.weight f4 [8, 64]
0.6813288 -0.3531784 -0.38045254 0.2785027 -0.24034795 1.0966132 0.92911386 4.3892546
0.034676336 3.1873493 -2.0136495 0.61791223 1.8988147 0.9766343 2.3541982 1.8247467
0.21352035 0.4964382 -0.7225093 1.2171236 1.3171672 1.0001004 3.2853653 0.28314504
1.9474982 0.5802926 2.0783303 2.0913744 0.3765634 0.98148704 4.315642 2.249507
3.5243828 -0.6832995 -1.0497453 0.60947317 3.0217993 2.309172 1.5677152 0.2965567
1.1685736 1.3170229 1.7492499 -2.1282082 -2.2473245 1.4346147 1.2107261 -1.8809228
-0.7497173 -0.25461355 1.3995389 2.3974977 -1.6885855 2.2868698 4.264202 1.4867203
-0.3916733 0.46858692 1.1613586 2.9378703 3.8416138 -0.82824564 -0.3383446 0.16547753
2.7626116 0.7770189 0.7464855 1.6883069 1.7019203 1.2151649 1.5390819 1.1164312
0.075412326 2.098628 1.9380429 1.3784251 -2.407836 1.6844687 -1.3390063 -0.7320607
-1.249967 0.26526424 0.9638104 1.1250027 0.91624075 1.7027646 2.1366527 -1.3147151
2.774317 1.9525039 2.7928374 2.653645 1.7618634 1.6036061 3.5522645 0.8229155
-0.894222 -0.15393765 3.3184197 1.2411116 -0.6390631 1.7124205 1.2943164 1.4857742
-1.186948 -1.7472503 -0.24651057 2.7203898 2.8313007 -1.045337 0.3626589 4.702503
0.78285396 -0.6624451 -1.1008712 -1.4687253 -1.7037553 1.6588756 -3.904514 3.2499719
1.1363262 2.0749805 1.184696 -0.5693816 0.78879964 -2.2424655 0.77585816 0.14480104
-0.33452538 1.2180035 1.4268126 0.07954791 2.0935585 -0.5508955 -0.6448292 0.2844881
0.15934594 -0.2805537 2.62935 2.0379605 1.1657445 -0.6084514 0.10279225 1.3675988
2.4953337 0.27663457 0.34483957 -1.4736199 -1.5015815 -0.6172238 -0.2835733 3.7619765
-1.2252432 -0.4362636 -1.2347996 -1.0971416 2.5707068 -0.6264227 -3.1926088 0.9067048
0.83828366 3.0933368 -1.1719311 0.46509773 -1.5166458 -0.03754968 2.5516822 -0.16207677
0.9728395 1.7526633 -1.5561302 1.1364589 1.1332294 2.3668823 -0.16480032 -1.4272894
0.30555242 4.245865 3.6747494 0.16504587 5.1296806 0.025988039 2.2482007 1.1854349
-1.2461137 -0.28388318 -0.6922434 -1.5922202 -0.053584907 3.4149435 1.363083 -0.14218765
0.024926137 2.3351471 2.509251 -0.002870866 2.7274187 -1.1169353 -0.6098612 0.98788846
0.1302392 0.6904953 3.801653 2.7618992 -0.9377962 -0.47615418 -0.9573227 0.19917162
5.2387776 -2.0917358 -0.8143079 -0.6994292 -1.6025125 -0.6565668 0.736378 -0.32178396
-1.1414133 -0.022844002 -1.14219 -0.92949265 1.8714349 -0.5285012 -1.1247823 -0.115535386
-2.389744 -0.43854982 0.15866691 1.9600391 0.21956402 0.8748269 1.3986783 -0.13619095
0.2943673 1.5962313 -1.3769009 -0.12521534 0.0038823592 -0.482664 1.2048784 2.929796
-0.8983841 0.16875027 -0.94508857 -1.1217412 2.1568773 0.76768684 -1.985324 1.5519999
-1.1636189 0.004137019 -1.1306492 0.16898051 -0.3235746 -1.2733587 2.4769785 0.014664967
00000000: 906b 2e3f cdd3 b4be adca c2be e897 8e3e
00000010: c61d 76be d25d 8c3f 68da 6d3f c674 8c40
00000020: c608 0e3d 88fd 4b40 a2df 00c0 7f2f 1e3f
00000030: 5c0c f33f b504 7a3f 2fab 1640 4d91 e93f
00000040: 14a5 5a3e 262d fe3e 5ff6 38bf b5ca 9b3f
00000050: ef98 a83f 4a03 803f 6d43 5240 63f8 903e
00000060: 9f47 f93f 0e8e 143f 5d03 0540 14d9 0540
00000070: ebcc c03e bc42 7b3f bd19 8a40 ecf7 0f40
00000080: 7d8f 6140 b7ec 2ebf 0e5e 86bf 6f06 1c3f
00000090: 2965 4140 79c9 1340 e4aa c83f 48d6 973e
000000a0: d293 953f 3594 a83f 6ce7 df3f 9034 08c0
000000b0: 2ad4 0fc0 74a1 b73f 13f9 9a3f 14c2 f0bf
000000c0: 79ed 3fbf b55c 82be 1724 b33f 9a70 1940
000000d0: 9223 d8bf 135c 1240 5874 8840 da4c be3f
000000e0: 6789 c8be a0ea ef3e 66a7 943f 1106 3c40
000000f0: 00dd 7540 e807 54bf 813b adbe f172 293e
00000100: a1ce 3040 b6ea 463f ac19 3f3f 711a d83f
00000110: 86d8 d93f 868a 9b3f a300 c53f 38e7 8e3f
00000120: c771 9a3d ec4f 0640 ca11 f83f 3c70 b03f
00000130: fc19 1ac0 ac9c d73f 8f64 abbf 5468 3bbf
00000140: ebfe 9fbf b7d0 873e 47bc 763f 1700 903f
00000150: c18e 6a3f 31f4 d93f ebbe 0840 9648 a8bf
00000160: 698e 3140 a6eb f93f d9bd 3240 52d5 2940
00000170: bd84 e13f f742 cd3f 4d58 6340 97aa 523f
00000180: bceb 64bf d5a1 1dbe fd60 5440 bfdc 9e3f
00000190: a499 23bf 9830 db3f 29ac a53f d92d be3f
000001a0: e9ed 97bf e6a5 dfbf 446d 7cbe de1a 2e40
000001b0: 0834 3540 9acd 85bf 6dae b93e e87a 9640
000001c0: 1e69 483f 0196 29bf 59e9 8cbf 31ff bbbf
000001d0: a714 dabf 0956 d43f 8fe3 79c0 8aff 4f40
000001e0: 2373 913f 7bcc 0440 1ea4 973f fec2 11bf
000001f0: c6ee 493f 8e84 0fc0 a49e 463f b946 143e
00000200: e946 abbe 8ae7 9b3f cca1 b63f 04ea a23d
00000210: ddfc 0540 7d07 0dbf 8713 25bf 6da8 913e
00000220: 952b 233e bca4 8fbe 4547 2840 f26d 0240
00000230: 1e37 953f 79c3 1bbf be84 d23d 7a0d af3f
00000240: 8cb3 1f40 0ca3 8d3e d08e b03e 949f bcbf
00000250: d333 c0bf 6102 1ebf 8530 91be 39c4 7040
00000260: c5d4 9cbf f15d dfbe ea0d 9ebf 236f 8cbf
00000270: 7686 2440 3d5d 20bf b453 4cc0 ce1d 683f
00000280: c299 563f 3bf9 4540 d701 96bf 4a21 ee3e
00000290: 7321 c2bf b1cd 19bd c34e 2340 74f7 25be
000002a0: 020c 793f 4557 e03f 462f c7bf 7c77 913f
000002b0: a90d 913f 007b 1740 6ac1 28be 6bb1 b6bf
000002c0: 5e71 9c3e 20de 8740 182f 6b40 c901 293e
000002d0: 5826 a440 dee4 d43c 85e2 0f40 55bc 973f
000002e0: a780 9fbf 2359 91be dd36 31bf dfcd cbbf
000002f0: d97b 5bbd 6f8e 5a40 8179 ae3f a499 11be
00000300: e631 cc3c 0d73 1540 9297 2040 2425 3cbb
00000310: 078e 2e40 bcf7 8ebf dd1f 1cbf 42e6 7c3f
00000320: 6d5d 053e 4dc4 303f 484e 7340 f5c2 3040
00000330: 6913 70bf 7bca f3be 1a13 75bf a5f3 4b3e
00000340: 11a4 a740 00df 05c0 7c76 50bf cb0d 33bf
00000350: 211f cdbf c314 28bf 4583 3c3f dec0 a4be
00000360: d519 92bf 5823 bbbc 4833 92bf 3bf3 6dbf
00000370: 2e8b ef3f db4b 07bf def8 8fbf d19d ecbd
00000380: 91f1 18c0 9a89 e0be 9479 223e 90e2 fa3f
00000390: 64d5 603e a8f4 5f3f e407 b33f a475 0bbe
000003a0: 50b7 963e 4f51 cc3f 4a3e b0bf 7338 00be
000003b0: 2e6f 7e3b bc1f f7be 7539 9a3f c781 3b40
000003c0: 80fc 65bf dfcc 2c3e 53f1 71bf 3795 8fbf
000003d0: 470a 0a40 2087 443f 191f febf efa7 c63f
000003e0: 77f1 94bf d58f 873b 1db9 90bf 3a09 2d3e
000003f0: 92ab a5be 6bfd a2bf d186 1e40 5445 703c

l1.bias f4 [8]
1.5902431 1.9105492 1.2190176 1.1210363 1.6747702 0.5798317 1.4848232 1.4307494
00000000: 168d cb3f e08c f43f c508 9c3f 1e7e 8f3f
00000010: df5e d63f da6f 143f b00e be3f cc22 b73f

l2.weight f4 [8, 8]
-1.5403476 0.7834447 2.9707816 2.7415822 3.4732342 -0.069941245 2.5231478 -2.3988295
1.6096007 -2.3748803 2.5612428 -1.0439651 -0.109703384 0.4126117 0.60620844 3.4449937
3.534891 2.163022 -1.2879876 -0.84686583 0.758898 0.08616246 3.3685384 2.762019
0.71332407 -0.1364468 0.8536702 0.7543326 2.2457523 -1.1006855 -0.26827446 -0.9310208
0.26157954 -0.26559633 0.007458657 -0.2441414 -0.22812837 -0.1545557 -0.2646292 -0.10299721
-0.750701 2.492589 1.9689888 1.28507 1.1516587 -0.78779083 -2.3241389 1.6503601
1.0620383 -2.5381312 1.7060987 2.730983 -0.7031431 1.809029 -1.7213284 0.518927
0.76252186 2.6563735 0.33168328 2.3477004 -2.2058947 3.9174516 -1.0155644 -0.24325304
00000000: 1c2a c5bf d58f 483f 4921 3e40 1576 2f40
00000010: 7849 5e40 5b3d 8fbd 417b 2140 6c86 19c0
00000020: 6507 ce3f 0afe 17c0 67eb 2340 a6a0 85bf
00000030: 2bac e0bd d741 d33e 7a30 1b3f c77a 5c40
00000040: a73b 6240 f46e 0a40 c7dc a4bf 33cc 58bf
00000050: 2447 423f f275 b03d 2296 5740 ebc4 3040
00000060: 689c 363f b6b8 0bbe 218a 5a3f f11b 413f
00000070: 68ba 0f40 43e3 8cbf 455b 89be 6157 6ebf
00000080: c1ed 853e 3efc 87be c067 f43b 3400 7abe
00000090: 7c9a 69be d943 1ebe 7a7d 87be 34f0 d2bd
000000a0: f12d 40bf 9486 1f40 d307 fc3f 2c7d a43f
000000b0: 8d69 933f a9ac 49bf b1be 14c0 003f d33f
000000c0: dff0 873f be70 22c0 7161 da3f 6dc8 2e40
000000d0: 3001 34bf 438e e73f 7d54 dcbf 66d8 043f
000000e0: a234 433f 0602 2a40 64d2 a93e b940 1640
000000f0: 612d 0dc0 87b7 7a40 04fe 81bf 5317 79be

l2.bias f4 [8]
0.57296 0.19745702 1.8532307 0.60791355 -0.32408643 1.2558955 0.5710838 -1.1717575
00000000: 82ad 123f 2c32 4a3e aa36 ed3f 39a0 1b3f
00000010: a8ee a5be 2fc1 a03f 8c32 123f 26fc 95bf

l3.weight f4 [189, 8]
-1.3650824 0.17662317 0.37292483 -0.74793094 0.28894785 -6.7615905 -1.5198435 -0.6327031
0.21817905 -0.7484443 -1.3314004 0.22173484 -0.15772092 -0.6649164 -0.1837489 -0.22213691
0.5556792 -0.5948603 -2.061154 0.28035983 0.14911446 -0.7725404 0.31703895 -0.9614101
-0.7893322 -1.3073614 -0.7130723 -0.12944806 0.35156903 -0.27187148 0.07085901 0.30476663
0.46261045 -3.5406485 -0.9443793 0.12891121 -0.13725244 -0.61130124 0.14174695 -0.54312146
0.6613443 -1.2456673 -7.3630953 0.6548343 -0.19883968 0.016715325 0.27720153 -0.671327
0.43734396 -0.88830286 -0.770108 0.32579282 -0.23408207 -2.910016 -0.15053526 -0.4546312
-0.4070374 0.024954531 -0.7997943 0.083750956 0.1494554 -1.0891358 -0.09505748 -0.16459797
0.39197728 -1.1456821 -2.408915 -0.1833919 -0.20022231 -0.12933366 0.37745258 -0.34800515
0.1377795 0.47499773 -1.2509605 0.02040939 -0.33850095 -1.402196 -0.13261154 -0.6848815
-2.1997218 -0.6070258 -0.08201429 -2.199591 -0.112392664 -0.69377667 0.33926305 0.05262002
0.3498031 -0.6780932 -0.9129565 -0.44344103 0.043530792 -1.413295 -0.78880453 0.16035241
-0.25508314 0.16015585 -3.1442823 0.10761163 -0.06485164 0.0009756855 0.30024087 -0.20522688
-0.2105306 -0.113004714 -0.43752107 -0.17296755 -0.019214332 -7.9706283 -0.045583375 -0.29472983
-0.43481955 -0.48807934 -1.0889517 -0.12606734 0.032530993 -0.07793871 0.3356641 -0.32037002
0.39387304 -1.988665 -3.6905766 0.2613431 -0.34084737 0.08757916 0.092786536 0.058746476
0.037549805 0.025487546 -1.5553752 -0.17369547 -0.16753055 -0.34313682 0.10280883 -0.5631525
-1.4956594 -0.61507636 -0.764695 -1.2672852 -0.32786712 0.266407 0.024273252 0.22515109
0.12901802 -1.4684213 -1.0682209 -0.45746168 -0.24243823 -0.43751612 -0.52815944 0.26967922
0.14672624 -0.13716486 -4.773818 -0.14572255 0.1414372 0.44439965 -0.042711373 -0.21548595
-0.21593581 -0.6941609 -0.5041739 -0.14986475 -0.18897374 -1.9964807 0.024138667 -0.05103726
-0.20081194 0.12487569 -0.18901165 -0.26830918 0.13408273 -0.65759766 -1.7240587 -1.3561816
-0.2995611 -0.1291855 0.3770073 0.77184653 -0.33656433 -4.876707 -5.593007 -2.785248
0.25700375 -0.028552271 -0.40856287 0.1034371 -0.06933436 -2.2243297 -0.70142365 -1.286844
-0.3645171 -0.56071013 -0.13222761 -0.16362469 -0.23525679 -1.0630113 -0.332736 -0.50574255
-1.5378885 0.10231372 -0.7612673 0.6345931 -0.15640089 -0.42948195 0.060316477 0.015328428
-3.8081236 0.4592517 -0.8406454 -1.0712923 -0.31983224 -0.32661903 0.3647091 -0.0018081837
-0.40838876 -0.55706614 -1.8141814 0.2785662 -0.20361547 -0.50875795 0.4357607 0.11784217
0.1392662 -0.017324708 -2.4656456 0.16241841 0.27452543 -0.8435164 0.22446266 -0.16239424
-0.928014 -0.4051148 -1.5049895 -0.40107232 0.2930632 -0.17769283 0.20758425 0.4463371
0.123620614 -1.9470271 -1.985425 -0.14992496 0.056474805 -0.5458839 0.41024548 0.22480042
0.3168387 -0.009065415 -6.8602858 0.019850796 -0.106052175 -0.5598491 0.16417877 0.030950826
00000000: 05bb aebf b4dc 343e 01f0 be3e 6778 3fbf
00000010: f9f0 933e f35e d8c0 3b8a c2bf d5f8 21bf
00000020: 546a 5f3e 0c9a 3fbf 546b aabf 750e 633e
00000030: 9881 21be f637 2abf ac28 3cbe dc77 63be
00000040: fe40 0e3f c448 18bf f2e9 03c0 538b 8f3e
00000050: 76b1 183e 35c5 45bf ee52 a23e f91e 76bf
00000060: ad11 4abf 9e57 a7bf e88b 36bf 088e 04be
00000070: db00 b43e bd32 8bbe 871e 913d 5f0a 9c3e
00000080: 47db ec3e fc99 62c0 d8c2 71bf 4d01 043e
00000090: e78b 0cbe 3d7e 1cbf 1d26 113e 020a 0bbf
000000a0: dc4d 293f 0772 9fbf 7a9e ebc0 38a3 273f
000000b0: a19c 4bbe 94ee 883c 5ced 8d3e 16dc 2bbf
000000c0: 8ceb df3e d167 63bf cc25 45bf 51ce a63e
000000d0: 36b3 6fbe b43d 3ac0 ea25 1abe 6cc5 e8be
000000e0: 3567 d0be 726d cc3c 52bf 4cbf 9f85 ab3d
000000f0: d60a 193e cd68 8bbf 7fad c2bd 5f8c 28be
00000100: 3fb1 c83e b6a5 92bf aa2b 1ac0 16cb 3bbe
00000110: 1407 4dbe 0b70 04be 7741 c13e bb2d b2be
00000120: 1216 0d3e e732 f33e 791f a0bf 9831 a73c
00000130: ff4f adbe 297b b3bf 52cb 07be 6554 2fbf
00000140: 3ec8 0cc0 0b66 1bbf 1cf7 a7bd 19c6 0cc0
00000150: 202e e6bd 599b 31bf e3b3 ad3e 1788 573d
00000160: 6419 b33e 8497 2dbf 84b7 69bf b40a e3be
00000170: 584d 323d dae6 b4bf 18ef 49bf 6c33 243e
00000180: 429a 82be e5ff 233e ec3b 49c0 7c63 dc3d
00000190: f0d0 84bd 25c5 7f3a 2cb9 993e ff26 52be
000001a0: 5595 57be 046f e7bd c302 e0be 681e 31be
000001b0: 6067 9dbc 630f ffc0 a2b5 3abd d4e6 96be
000001c0: aba0 debe 89e5 f9be c562 8bbf cc17 01be
000001d0: 383f 053d 559e 9fbd 2adc ab3e 8a07 a4be
000001e0: baa9 c93e 938c febf 6832 6cc0 c3ce 853e
000001f0: 8c83 aebe b45c b33d de06 be3d 25a0 703d
00000200: d3cd 193d 42cb d03c 8916 c7bf 3add 31be
00000210: 218d 2bbe a1af afbe 708d d23d c32a 10bf
00000220: c471 bfbf a575 1dbf 0dc3 43bf 6736 a2bf
00000230: 33de a7be 8066 883e b3d8 c63c 028e 663e
00000240: 4d1d 043e 3bf5 bbbf 76bb 88bf 6b38 eabe
00000250: ba41 78be 1d02 e0be 7535 07bf 6513 8a3e
00000260: 673f 163e f274 0cbe 1ec3 98c0 4b38 15be
00000270: ead4 103e 5a88 e33e 1ff2 2ebd 59a8 5cbe
00000280: 471e 5dbe 87b4 31bf 8a11 01bf 2576 19be
00000290: 5582 41be ae8c ffbf 74be c53c 720c 51bd
000002a0: a5a1 4dbe d3be ff3d 458c 41be d25f 89be
000002b0: fc4c 093e 5258 28bf f5ad dcbf 5c97 adbf
000002c0: 1360 99be 3449 04be 1a07 c13e bc97 453f
000002d0: 2952 acbe fc0d 9cc0 eaf9 b2c0 8141 32c0
000002e0: ff95 833e 74e6 e9bc 272f d1be d5d6 d33d
000002f0: 2cff 8dbd 6b5b 0ec0 8090 33bf 4eb7 a4bf
00000300: fca1 babe b38a 0fbf ad66 07be 3b8d 27be
00000310: 28e7 70be c110 88bf 5f5c aabe 5878 01bf
00000320: 88d9 c4bf db89 d13d 6ae2 42bf b274 223f
00000330: 8e27 20be 0fe5 dbbe 690e 773d 1624 7b3c
00000340: 4cb8 73c0 0a23 eb3e 8934 57bf 1b20 89bf
00000350: 0dc1 a3be 9c3a a7be 27bb ba3e 9400 edba
00000360: 5518 d1be e39b 0ebf 1937 e8bf 3ba0 8e3e
00000370: 9380 50be f63d 02bf 071c df3e 3c57 f13d
00000380: cc9b 0e3e 8cec 8dbc 23cd 1dc0 0351 263e
00000390: 998e 8c3e b1f0 57bf 8ad9 653e ad4a 26be
000003a0: 5392 6dbf 356b cfbe 7fa3 c0bf 5a59 cdbe
000003b0: 610c 963e 1cf5 35be f790 543e 4c86 e43e
000003c0: ce2c fd3d 2f38 f9bf 6822 febf ee85 19be
000003d0: 2052 673d 0cbf 0bbf b20b d23e 1532 663e
000003e0: af38 a23e 1b87 14bc 7687 dbc0 239e a23c
000003f0: e231 d9bd 4552 0fbf 7b1e 283e 968c fd3c

l3.bias f4 [189]
0.038568035 -0.50809854 0.020460008 -0.107624404 -0.041083362 -0.38398805 0.06366996 -0.10420718
-0.011679488 -0.32857728 -0.38889274 -0.111517966 0.23542956 -0.17998715 0.029635906 0.06961139
-0.2083365 -0.09832137 -0.3670091 0.14181343 0.07373155 -0.12058183 -1.1111042 -0.07662541
-0.2058626 -0.42297962 -0.63962036 -0.43062702 -0.66400564 -0.080693975 -0.31350097 -0.5459623
-0.40433574 -0.44517884 -0.124612845 -0.187237 -0.11265648 -0.12299473 -0.545234 -0.17813665
0.077966206 -0.38577384 -0.34194872 0.13644482 -0.37096024 -0.1787516 -0.706851 2.7971187
3.0178194 1.4913479 1.1624715 0.23719773 2.8346367 2.3662012 3.0963118 -0.4799516
0.1406642 -0.86473817 -0.076158024 -0.037610058 0.20582458 0.21567902 -0.20243272 0.003680836
-0.21235082 -0.328347 0.08008301 0.22585766 0.2589836 -0.7896862 -0.4339255 -0.17078242
-0.127074 -0.39305156 0.02943931 0.18044002 -0.3980187 0.509529 0.5018348 0.8078943
-0.010080912 0.26563555 0.043466635 -0.5454423 -0.10868449 -0.38893485 -0.13129361 -0.9147877
0.07027903 -0.8301308 -1.2354622 -0.7164096 -0.030236127 0.12274596 -0.34011075 0.023258397
0.20866293 -0.90780836 0.022510746 -1.6225764 -0.4344648 -0.3075302 -0.06498358 -1.0755734
-0.14134496 -0.51962703 0.121486075 -0.2479896 -1.0046908 0.4614134 0.24399465 -0.51423407
-0.54405665 -0.35387352 -0.17059307 -0.52807933 -0.05097152 0.21948773 0.1758747 -0.77809817
0.23364931 -0.40724853 -0.4422197 0.10823099 -0.12653378 -0.3327016 -0.09965779 -0.94364625
0.094100855 -0.1538693 -0.27298638 0.07427809 -1.0075768 -1.8363187 -0.24241658 -0.14276738
-0.35581058 -1.1945223 -0.17394651 0.110370666 -1.6148151 0.14209324 -0.056084394 -0.19396047
-0.7400609 -0.019117113 0.53077704 0.4613847 -0.032819144 0.71657324 -1.360641 -1.1824657
0.07284305 0.040208247 0.41262457 -0.25948876 0.25904953 -0.36250612 -2.0042722 -0.04769561
-0.15091594 -0.20333904 0.3677919 -0.46592954 0.027586468 -0.16883828 -0.13836092 -0.41948205
-0.22030559 -0.81027097 -0.5513505 0.13284329 -0.82744545 -0.14186901 0.14481808 -0.3106137
-0.6198757 -1.45241 0.029541373 -0.13133836 -0.2809773 -0.23812675 -0.5521324 -0.1928526
0.082086004 -0.025237346 -0.0451209 -0.9633702 -2.5094094
00000000: 84f9 1d3d bf12 02bf bf9b a73c 2f6a dcbd
00000010: 0747 28bd 159a c4be 6565 823d 936a d5bd
00000020: 535b 3fbc 483b a8be f31c c7be 8863 e4bd
00000030: 7214 713e 8d4e 38be 00c7 f23c 6b90 8e3d
00000040: 2a56 55be b75c c9bd 9ee8 bbbe 8a37 113e
00000050: 9100 973d 9bf3 f6bd aa38 8ebf c8ed 9cbd
00000060: a5cd 52be c990 d8be 29be 23bf 257b dcbe
00000070: 46fc 29bf e242 a5bd 3383 a0be 2fc4 0bbf
00000080: 1805 cfbe 7bee e3be 0535 ffbd 0ebb 3fbe
00000090: 71b8 e6bd a9e4 fbbd 7594 0bbf 7469 36be
000000a0: bfac 9f3d 2684 c5be e713 afbe 31b8 0b3e
000000b0: 80ee bdbe a90a 37be 30f4 34bf fe03 3340
000000c0: f423 4140 7de4 be3f decb 943f f6e3 723e
000000d0: b06a 3540 d76f 1740 f929 4640 37bc f5be
000000e0: 470a 103e 7b5f 5dbf bdf8 9bbd 010d 1abd
000000f0: aec3 523e f6da 5c3e 864a 4fbe 2e3a 713b
00000100: 7e72 59be 191d a8be 9002 a43d 3b47 673e
00000110: 8099 843e e028 4abf 7c2b debe 96e1 2ebe
00000120: b01f 02be 0e3e c9be b52a f13c 45c5 383e
00000130: 1bc9 cbbe 7e70 023f 3f78 003f 29d2 4e3f
00000140: 692a 25bc 6201 883e 120a 323d 1ba2 0bbf
00000150: f995 debd 7822 c7be d571 06be 872f 6abf
00000160: 74ee 8f3d 7483 54bf a023 9ebf 9f66 37bf
00000170: c1b1 f7bc 3c62 fb3d ff22 aebe 6588 be3c
00000180: bcab 553e 2166 68bf 7568 b83c 95b0 cfbf
00000190: 2c72 debe 9974 9dbe 1c16 85bd 64ac 89bf
000001a0: bcbc 10be 4706 05bf b1cd f83d fcf0 7dbe
000001b0: b599 80bf 613e ec3e bcd9 793e d8a4 03bf
000001c0: 4c47 0bbf e92e b5be f3af 2ebe 3530 07bf
000001d0: 83c7 50bd 64c1 603e 7f18 343e 7131 47bf
000001e0: c441 6f3e e182 d0be 9f6a e2be 36a8 dd3d
000001f0: 1292 01be dd57 aabe 6219 ccbd cd92 71bf
00000200: f3b7 c03d ea8f 1dbe dfc4 8bbe 1c1f 983d
00000210: 47f8 80bf 7e0c ebbf 0d3c 78be 9d31 12be
00000220: ce2c b6be 1be6 98bf 091f 32be 040a e23d
00000230: 43b2 cebf e480 113e c0b8 65bd 939d 46be
00000240: a274 3dbf 7e9b 9cbc 01e1 073f 9e3a ec3e
00000250: 5e6d 06bd 5871 373f 7c29 aebf 095b 97bf
00000260: bd2e 953d 67b1 243d 8743 d33e b6db 84be
00000270: 24a2 843e 679a b9be ff45 00c0 795c 43bd
00000280: b589 1abe 1c38 50be 384f bc3e 518e eebe
00000290: 04fd e13c f1e3 2cbe 7cae 0dbe 5ac6 d6be
000002a0: ca97 61be eb6d 4fbf 4e25 0dbf 1208 083e
000002b0: 77d3 53bf 1c46 11be 314b 143e c208 9fbe
000002c0: 2db0 1ebf 92e8 b9bf c000 f23c 907d 06be
000002d0: 42dc 8fbe 80d7 73be 8d58 0dbf 277b 45be
000002e0: b51c a83d 8dbe cebc b1d0 38bd 6e9f 76bf
000002f0: 2a9a 20c0
